app/src/main/assets/sleep_quality.tflite (tflite, 11088 bytes, 5 tensors)

arith.constant f4 [1, 32]
000000 32 1d 37 bd c7 bd 25 be bc 00 da 3e 30 a4 6c 3e
       -0.044705577 -0.16185676 0.42578685 0.23109508
000010 16 cc 34 be ff 0c 0e be d3 c3 1d 3e 41 4a e1 3d
       -0.17655978 -0.13872145 0.15406732 0.11000491
000020 7d ca 45 be 01 f6 d5 3e 10 6d 72 3e cb b3 c2 be
       -0.19315524 0.4178925 0.23674417 -0.38027796
000030 0f 26 a9 3e 0a 1a 88 be c0 db a2 be 2e e6 cc 3e
       0.3303685 -0.26582366 -0.3180828 0.40019363
000040 b5 76 67 bd 45 d7 b7 be 2c 93 bd be 96 92 3e be
       -0.056509692 -0.35906425 -0.37026346 -0.18610606
000050 e8 bb b0 be 91 97 8f be 1a c5 f5 3d 4d d0 42 be
       -0.3451836 -0.28045323 0.12000485 -0.19024773
000060 37 a0 ad 3e 5e e2 20 3e 47 78 e7 bb 73 4a c3 be
       0.33911297 0.15711352 -0.0070638987 -0.38142738
000070 95 25 2b be 19 48 50 3e 5f 1d 2f be 3c 28 94 be
       -0.16713555 0.20340003 -0.17101048 -0.28936946

arith.constant1 f4 [32, 64]
000000 a1 77 48 bd 08 5d d7 bd 0d 90 89 be 81 75 bc 3d
       -0.048942212 -0.10515791 -0.26867715 0.092020996
000010 ae de c4 3d e4 c0 05 3e c7 af 03 be e6 13 05 be
       0.09612785 0.13061863 -0.12860022 -0.12995872
000020 39 5d e0 bd af c7 9e 3d 79 71 10 be 7f 89 9f bc
       -0.10955281 0.077529304 -0.14105786 -0.019474743
000030 3f 5b 2f be 91 37 08 3d b5 18 0d bd de a8 e5 3b
       -0.17124651 0.033256117 -0.03444739 0.007008656
000040 53 9e 2a 3d dd 66 75 be 44 f1 f4 bd fe b4 05 3e
       0.041654896 -0.2396502 -0.1196008 0.13057324
000050 5c 09 a7 bd 15 1f d3 bd 33 dc 73 be f8 85 3a be
       -0.08156082 -0.10308663 -0.23814468 -0.18215168
000060 a6 da 3d be 68 4b 4b 3e d1 2c 52 3e fe 7e 20 be
       -0.18540439 0.19852984 0.20524909 -0.15673444
000070 0f 3a ad 3b 56 7b 5d 3e 61 97 ba 3b 8e 2f eb bb
       0.005286462 0.2162908 0.0056943153 -0.0071773
000080 b0 71 e9 bd aa 6a 25 be ad 4f a8 bd 90 a8 9f bd
       -0.11398637 -0.1615397 -0.08218322 -0.077958226
000090 64 18 66 be 99 1b fb 3d 6c ad 5e 3e d1 c2 47 be
       -0.22470242 0.12261123 0.21745843 -0.1950791
0000a0 4e 07 bf bd e0 32 3f 3d c9 0e 8e bd ec 02 35 be
       -0.09327565 0.046679378 -0.06936414 -0.17676896
0000b0 a9 c1 97 bd ad cb 0b bd a8 99 29 3e 61 56 8b bd
       -0.074099846 -0.034129787 0.16562521 -0.06803585
0000c0 af 85 64 3e e3 fb 75 be 59 5c 5a be 94 30 ea bd
       0.22316621 -0.24021868 -0.2132429 -0.11435047
0000d0 aa f8 45 3e 7f 28 21 be f8 f0 b7 bd 6a ab 3e 3e
       0.19333139 -0.15738104 -0.08981508 0.18620077
0000e0 4e 2f d6 bc 66 7a 9e bd b9 8b 61 be f4 ef f9 bc
       -0.026145604 -0.077381894 -0.22025956 -0.030509926
0000f0 6e 72 e1 bb 81 b3 cd 3d 37 6f ea bd 32 7c 8d be
       -0.006880096 0.10044003 -0.11446994 -0.27633816
000100 82 54 24 3c 9e f4 40 be 95 a2 48 bb 8b e7 50 be
       0.010029914 -0.18843314 -0.0030614485 -0.20400827
000110 49 a0 98 3d 44 c9 49 be 1e 0b bc bd 65 7f ec 3d
       0.07452447 -0.19705683 -0.09181808 0.11547736
000120 e4 e6 17 bd 4a be 24 3d 9a 01 21 bd 70 c9 d9 3d
       -0.03708543 0.040220536 -0.039308168 0.10634124
000130 7e 7e d2 bd 4d 3c b1 3d 64 0c a0 3d 5f 6d b7 3d
       -0.10278033 0.086540796 0.07814863 0.08956408
000140 ba 01 11 be 7f 50 b3 bd 9f ce 9c bd 62 18 06 be
       -0.14160815 -0.08755588 -0.07656597 -0.13095239
000150 37 e8 98 bd 46 b2 71 bc 33 95 32 3e 84 fc 1e 3e
       -0.074661665 -0.014751976 0.17439727 0.15526015
000160 23 fc 02 3e bb f9 15 be aa d1 33 3e 02 89 ef 3d
       0.12791495 -0.14646046 0.17560449 0.11696054
000170 4f a7 5b 3c 73 84 19 3e c3 8e 3b 3e fc 10 33 3e
       0.013406589 0.14991932 0.18316178 0.17486948
000180 af c0 05 bd ff a0 45 3e 64 f3 c7 bd e7 25 37 3d
       -0.03265446 0.19299696 -0.0976322 0.04471388
000190 4e 34 5a be 96 16 11 3e 2d 6e 82 be 2d 72 4e 3e
       -0.21309015 0.14168772 -0.25474682 0.20160742
0001a0 c1 d3 d0 bd 77 b1 4a be 58 47 33 be bb 09 48 3e
       -0.10196639 -0.1979426 -0.17507684 0.19534962
0001b0 47 46 5f 3e 3f 58 5a be 29 f9 ff 3d b9 c0 82 3d
       0.21804152 -0.21322726 0.124986954 0.06384415
0001c0 df 58 49 be 9c ff 3a be dd ca 85 bd 18 34 3d 3d
       -0.19662808 -0.1826157 -0.06532834 0.04619226
0001d0 92 3a 79 be f5 ac 58 3e bb 62 1d 3e 24 ef 88 be
       -0.24338749 0.21159728 0.15369694 -0.2674495
0001e0 67 93 08 3e 66 19 80 bb 45 50 75 be f1 9f c4 3d
       0.1333748 -0.0039092777 -0.23956402 0.09600819
0001f0 fb da bd bd 1f 5a 85 be 33 06 1d be 05 fe 8a be
       -0.09270283 -0.2604532 -0.15334396 -0.27146927
000200 90 07 81 3d 42 5a 26 bd 10 8d 26 bc 81 22 50 3d
       0.063002706 -0.04061342 -0.010165468 0.050814155
000210 b7 fa f6 bc 25 d8 de bd 31 73 32 3e e1 e4 45 3e
       -0.030148847 -0.1088107 0.17426755 0.19325592
000220 44 70 10 be f7 d0 5e 3e 66 57 48 3e 92 e5 50 bd
       -0.14105326 0.21759401 0.1956459 -0.051000185
000230 d7 66 3a bd 71 c1 e7 bd 0e e0 19 3e 31 57 5f bd
       -0.045508232 -0.11316193 0.15026876 -0.05452651
000240 26 1b 53 be 1c 56 af 3d ad 82 05 be c0 c2 47 bc
       -0.20615825 0.08561346 -0.1303813 -0.012192428
000250 cf 09 80 3e 58 7c 1c 3e 50 96 5a be 05 27 5c bd
       0.25007483 0.15281808 -0.21346402 -0.05374815
000260 d7 e2 e5 3d 19 d7 42 be 46 bd 3b 3e 3c bc ff bd
       0.11224907 -0.19027366 0.18333921 -0.12487075
000270 cf 9c 2c be 0f 32 46 3e 8c ad 6c be b2 6a ab 3d
       -0.16856693 0.19355033 -0.23113078 0.0836996
000280 6c 24 36 be 75 eb a5 bc 6f 28 a2 bc a6 72 35 3d
       -0.17787331 -0.020253876 -0.01979467 0.04429879
000290 d6 f7 8a 3e d8 1a 85 be 0e b5 46 3e f6 d2 ad bc
       0.2714221 -0.25997043 0.19405004 -0.021218758
0002a0 ae a3 2d be 12 10 03 be fa cc db 3d 22 b2 04 bc
       -0.1695697 -0.12799099 0.107324556 -0.008099111
0002b0 de df 66 bd f1 b4 22 3e 8f 2a 14 be 65 88 6f be
       -0.05636584 0.15889336 -0.1446936 -0.23391874
0002c0 e8 5a 10 3e 66 a2 5d 3e 36 4e 51 be ff f6 c9 3d
       0.14097178 0.21643981 -0.20439991 0.09861564
0002d0 43 4d ae 3d b7 72 83 be b9 2b 15 bc 80 94 42 3d
       0.0851083 -0.25673458 -0.009104663 0.047504902
0002e0 0c 1c 86 be 23 c3 5d 3e 52 3e af 3c 0d 5b 01 be
       -0.26193273 0.2165647 0.021392021 -0.1263239
0002f0 3e a2 7e bd 49 54 48 3e 56 dd c1 bd 96 e5 5c be
       -0.062166445 0.19563402 -0.094660446 -0.21571955
000300 42 2e 92 be 0c b2 6b 3d 89 05 ec 3c c5 2b 20 be
       -0.28550917 0.057542846 0.028811233 -0.15641697
000310 b2 d9 66 3a 0b 21 0c 3d bd a7 9e be 84 cd 01 3e
       0.0008806243 0.0342112 -0.3098735 0.12676054
000320 08 8b 40 3d 27 01 44 3e ba 3c 88 bc 0c 22 1a 3c
       0.04700759 0.19141065 -0.01663052 0.0094075315
000330 1c fe 96 3d d3 f1 d6 bd b9 b0 88 bd 89 aa 08 3e
       0.07372686 -0.10495343 -0.06674332 0.13346304
000340 e7 89 5b 3e 57 98 43 be fc 62 be bd 11 b1 4f 3e
       0.21439324 -0.19101082 -0.092962235 0.20282389
000350 a8 1c 84 3e 14 f9 42 bd 75 a3 88 3d 3f 3d 1b bd
       0.25803113 -0.04760082 0.06671802 -0.037900206
000360 e1 2f 3a 3d 2a 92 a2 bb c4 bb b6 be 09 5a dd bc
       0.045455817 -0.004961272 -0.3569013 -0.027020471
000370 76 51 39 bc 69 69 16 3c 21 42 5c be e2 2b d1 bd
       -0.011310926 0.009180405 -0.21509601 -0.10213448
000380 24 ce 48 3e a5 d8 e4 3d fa f9 98 bd 63 15 f2 bd
       0.19609886 0.11174134 -0.07469554 -0.118204854
000390 98 bd 8c bd da 12 39 3e 9c 60 a2 bd 8e 1c e6 bc
       -0.068721 0.18073598 -0.07928583 -0.028089788
0003a0 9a ed 87 3d b3 7b 7f 3d 83 bb e8 3d 3c 4b 90 3d
       0.06637116 0.06237383 0.1136389 0.070456
0003b0 c2 97 88 3d 89 1f 98 3c 2f cd 40 be bc 7a 05 bd
       0.066695705 0.018569725 -0.18828271 -0.03258775
0003c0 0a 80 8e be c0 f0 6c bd 07 2c 9c 3c df 88 c4 3d
       -0.2783206 -0.057846785 0.019063963 0.095964186
0003d0 c4 9a 23 be e4 3b e9 3c 74 90 9f 3d 18 1a 26 be
       -0.15977007 0.02847094 0.07791224 -0.16220891
0003e0 fe d3 40 3e bc 5f 94 3e eb 39 88 3d a6 cd 48 3e
       0.18830869 0.2897929 0.06651672 0.19609699
0003f0 eb e7 48 3c eb a6 24 bd 64 36 1c be 7f 27 5c 3e
       0.012262325 -0.040198248 -0.15255123 0.21499442

arith.constant3 f4 [32]
000000 7d 2a ee bc 63 f0 30 bd 12 d8 c9 3d 67 e5 d9 3e
       -0.029072994 -0.043198 0.09855665 0.42557833
000010 5e e5 24 bd d4 73 02 bd a3 d4 07 3e 86 03 ca 3d
       -0.040257804 -0.031848744 0.13264708 0.09863953
000020 e0 a0 19 bd 3f e7 b9 3d 4c 8c ef 3d e5 59 45 bd
       -0.037506938 0.0907731 0.116966814 -0.048181433
000030 47 a4 e0 3d 1c 90 19 bd 2a 36 5d bd f8 2d 03 3e
       0.109688334 -0.03749095 -0.054006733 0.12810504
000040 ae e7 05 bd 2d 84 11 bd 73 d9 2a bd aa 89 71 bd
       -0.03269165 -0.035526443 -0.041711282 -0.058969177
000050 13 35 ee bc e5 ac 1d bd 29 c7 01 3e 16 7a 86 bd
       -0.029078042 -0.038494963 0.1267363 -0.06566255
000060 00 88 da 3d d2 92 df 3d dc 34 1b bd 79 f9 16 bd
       0.10670471 0.109166756 -0.037892208 -0.03685901
000070 5d dd 2a bd 5c d0 06 3e 7f 21 2a bd 98 cb 2e bd
       -0.041715015 0.1316542 -0.04153585 -0.04267463

sequential_1_1/dense_2_1/Add/ReadVariableOp f4 [64]
000000 5e a0 9c 3d 80 c9 5b bc 34 b1 72 bd bd 77 dd 3d
       0.07647775 -0.013414741 -0.059251025 0.10813854
000010 17 8b 49 bd 36 13 06 bd 3c ee 1b 3d dc e6 52 3d
       -0.049204912 -0.032733165 0.038068995 0.051489696
000020 0c dd 40 bd b7 56 a4 3d 82 d6 03 bd 4a 37 88 3d
       -0.047085807 0.08024352 -0.032186992 0.066511706
000030 72 d8 c9 3d 32 d3 4d 3d aa e7 c1 3d b6 b5 a0 bd
       0.09855737 0.05025024 0.094680145 -0.078471586
000040 d3 c5 45 bd ee 7c 98 3d 0a 9c 9a 3d 1a 1d 7b bc
       -0.048284363 0.074457034 0.07549293 -0.015326763
000050 d5 8f 98 3d eb d5 c1 3d b1 54 56 bd 05 3a a9 3d
       0.07449309 0.0946463 -0.05232686 0.082630195
000060 c2 f8 ae 3d 86 d8 87 bd e7 87 a0 bc 53 66 c8 bd
       0.085435405 -0.066330954 -0.019596053 -0.09785142
000070 9c 47 a2 3d 27 73 90 3d 2e 82 8d 3d a5 67 9f 3d
       0.07923815 0.070532136 0.069095954 0.077834405
000080 10 b7 05 bd cc b0 bd 3d 6d 68 15 3d 52 88 32 bd
       -0.032645285 0.09262237 0.03647654 -0.043587036
000090 34 3c b5 3d f1 7b 2e bd d9 5a 1a 3d 50 ea 2b 3d
       0.088493735 -0.04259867 0.037684295 0.041971505
0000a0 f1 09 5d 3c ab 34 8a bd ce fc b9 bd 64 45 af 3d
       0.01349114 -0.06748327 -0.09081422 0.08558157
0000b0 c7 43 af 3b 9d 25 62 3d 22 eb 2e bd 2e 1c d0 3c
       0.005348656 0.055211652 -0.04270471 0.025404062
0000c0 72 fb 99 3d 6b b8 83 3d c1 18 a5 bd fb e7 82 3d
       0.075186625 0.06431659 -0.08061362 0.06391903
0000d0 41 b5 78 3d 48 e1 3d bd 4e b3 06 3d c8 4e ad 3d
       0.060719732 -0.046357423 0.032885842 0.08462292
0000e0 dc 29 24 bd 74 4c 85 bd e4 61 b7 bb ab f8 85 bd
       -0.040078983 -0.06508723 -0.0055963863 -0.0654157
0000f0 7c 76 d7 3d 58 6a f3 3d ea 63 b2 bb d2 b4 61 3b
       0.10520646 0.11885518 -0.0054440396 0.0034440053

sequential_1_1/dense_2_1/MatMul f4 [64, 2]
000000 f9 9a 5c be a9 00 cc bc c0 08 67 bd bf 9d bf bd
       -0.21543492 -0.024902659 -0.05640483 -0.093562596
000010 60 08 7b be 60 56 d7 bc 57 ad 90 bd a2 1b de bd
       -0.24514914 -0.026286304 -0.07064312 -0.10845114
000020 c1 b3 15 3e bc 5f f0 3c fa 79 3e bd c0 56 80 bc
       0.14619352 0.029342525 -0.046503045 -0.015666366
000030 16 bf 63 3e f6 3f 90 bd 56 d4 e3 bd d9 99 31 be
       0.22240862 -0.070434496 -0.11124484 -0.17343844
000040 8f 09 4d 3e 7f 89 50 3d 0d ea 48 3d 3e 6c 58 3d
       0.20023178 0.050912376 0.049051333 0.052837603
000050 5d 32 ab 3c 72 72 2a 3e de 23 58 3d 55 d6 d4 bd
       0.020898039 0.1664522 0.05276858 -0.10392443
000060 50 04 93 3d 9c 79 93 3d cc 28 cb bd 43 52 74 bd
       0.07178557 0.072009295 -0.09919891 -0.059648763
000070 9b 8b 59 3d 41 07 35 be cb af 0f be ad ff 93 3d
       0.053111654 -0.17678548 -0.14031903 0.07226501
000080 06 39 1d bd ce 46 aa 3d 7e 6b 26 3e ac 00 21 be
       -0.03838446 0.08314286 0.16251943 -0.15722913
000090 b1 fe 83 bd 69 30 97 3d b6 d4 29 be 6e 87 4c 3d
       -0.06445063 0.073822804 -0.16585049 0.049933843
0000a0 84 45 25 bc fe 10 16 3c 24 79 03 3d 63 db 84 bd
       -0.010087375 0.009159325 0.03209795 -0.06487157
0000b0 8e 18 53 3e 0e 86 2a 3e 30 9b 07 3e af e5 38 3e
       0.20614836 0.166527 0.13242793 0.18056367
0000c0 8f 25 ad 3c 70 e4 95 3d b9 c7 44 3e 24 93 63 3d
       0.021136073 0.073189616 0.19216813 0.055560246
0000d0 bd cf 97 bd 08 1c 7d 3e 6a c0 6a 3e cf 25 4b 3e
       -0.0741267 0.24717724 0.22924963 0.19838642
0000e0 19 ed ed 3c b5 b2 dd 3c e3 20 db bd c5 15 5d be
       0.029043721 0.027062753 -0.10699632 -0.21590336
0000f0 5f c7 c9 3d ca 0d 49 be e3 1a ec bc 57 99 75 bc
       0.0985248 -0.19634166 -0.028821414 -0.014990172
000100 9a 3b 54 bd b6 19 1c 3e 7a 12 0e bc 69 f7 1d bd
       -0.051814653 0.15244183 -0.008671397 -0.038566027
000110 07 01 46 be 64 f3 81 3e 18 7b 1e 3d 6a 66 bf bd
       -0.1933633 0.25381005 0.03869161 -0.09345706
000120 80 c2 cd 3c 17 ce cc bd ed bd 01 bd c8 1f 41 3e
       0.025117159 -0.10000246 -0.031675268 0.1885978
000130 ed 2b 5d 3e 3f 72 86 3e 8d b0 b6 bd 34 36 c5 bc
       0.21598788 0.26259038 -0.08920393 -0.024073698
000140 d1 32 3b 3d c7 91 97 3e 7d 04 c7 bd 16 bc 81 be
       0.04570276 0.29603407 -0.09717653 -0.2533881
000150 05 3b 71 3e 04 44 9b bd ed f1 80 3d 21 02 4f be
       0.2355767 -0.07581332 0.06296144 -0.20215656
000160 ee 04 fd bd 50 51 52 be 59 d2 99 bd 6b 66 22 be
       -0.12354456 -0.20538831 -0.07510824 -0.15859382
000170 b4 23 f2 3b 86 d5 3c 3e 83 1f 98 3d 94 93 78 3e
       0.00738951 0.18440828 0.074278854 0.24275047
000180 07 12 07 be 41 72 9d be 94 cc 04 3d 83 e4 3a bc
       -0.1319047 -0.3075123 0.032421663 -0.0114070205
000190 ac e4 ff 3b c8 36 17 be 29 47 70 3e 60 ea 7c 3d
       0.0078092422 -0.14766991 0.23464645 0.061746955
0001a0 80 42 39 3e db 93 1d bd 91 72 61 3d 7c 0d fc 3c
       0.18091774 -0.038471084 0.0550409 0.030768149
0001b0 88 de 6e be 54 96 4b be b3 c8 3d 3e 69 de b7 3d
       -0.23327076 -0.19881564 0.18533592 0.08977968
0001c0 95 c2 03 3e 06 db 6f 3e 17 fc 68 3e a1 36 71 be
       0.12867196 0.23423395 0.22752415 -0.23555996
0001d0 b4 f9 e6 bd fa 5a 55 3e 40 50 86 3e 3a 82 9a bd
       -0.11278096 0.20835486 0.262331 -0.0754437
0001e0 47 83 1f be 90 d3 09 3e 2c f5 83 bb 08 86 ca 3d
       -0.15577422 0.13459611 -0.0040270295 0.09888846
0001f0 d4 be 2d be 2b 47 40 bd 9e 18 88 3d ca 0b 1d 3e
       -0.16967326 -0.04694287 0.0664532 0.15336528
